new_dataset/ncars_trained.model (torch, 134903 bytes, 36 tensors)

weight f4 [8, 1, 8]
0.2846242 0.33828905 0.3459603 0.06448331 0.004819803 -0.23356634 -0.32971546 -0.11364467
-0.074856006 -0.06621679 0.006463713 0.3115014 0.12378195 -0.36884126 -0.15868737 -0.20168546
0.18564256 0.23433307 0.33329877 0.1736651 -0.22238241 -0.4038343 0.00012083106 0.07123893
-0.19688335 -0.083471805 0.10870755 0.023027878 -0.14548899 -0.32567808 0.17580141 0.026122188
-0.34622285 0.1670271 0.2280618 0.006824659 -0.065338 -0.3988737 0.16527364 0.17161989
0.3202245 0.008455369 -0.22047535 0.0856922 0.24534822 -0.48648584 -0.26980552 0.049965303
0.10243198 0.16950136 -0.13479136 -0.33022016 -0.29399365 -0.56007093 0.28462774 -0.13513666
-0.35328 0.3629577 -0.36914182 0.32210436 0.087920375 -0.47104388 0.24668747 -0.071434736
00000000: 43ba 913e 3934 ad3e b521 b13e d30f 843d
00000010: 70ef 9d3b 042c 6fbe 77d0 a8be 89be e8bd
00000020: 1b4e 99bd ab9c 87bd 8ecd d33b 1d7d 9f3e
00000030: 6481 fd3d c3d8 bcbe f17e 22be a286 4ebe
00000040: 1519 3e3e 02f5 6f3e 23a6 aa3e 44d5 313e
00000050: 37b8 63be 5fc3 cebe ae66 fd38 b7e5 913d
00000060: ca9b 49be 44f3 aabd 10a2 de3d f6a4 bc3c
00000070: 11fb 14be 47bf a6be 4905 343e 33fe d53c
00000080: 1f44 b1be 2709 2b3e 0889 693e 64a1 df3b
00000090: eecf 85bd 2c39 ccbe 7e3d 293e 20bd 2f3e
000000a0: 77f4 a33e 6388 0a3c 4ac4 61be 647f af3d
000000b0: 903c 7b3e ac14 f9be f323 8abe 6ba8 4c3d
000000c0: dcc7 d13d c491 2d3e bf06 0abe 9e12 a9be
000000d0: 5686 96be cf60 0fbf baba 913e 4461 0abe
000000e0: 1ee1 b4be 97d5 b93e 2800 bdbe ddea a43e
000000f0: 990f b43d aa2c f1be a49b 7c3e 604c 92bd

weight f4 [8]
0.9816826 0.9927349 1.0399541 1.0272983 0.9996882 1.0569406 1.0971322 0.9324382
00000000: 8d4f 7b3f e023 7e3f 371d 853f 837e 833f
00000010: 91eb 7f3f d449 873f d46e 8c3f 45b4 6e3f

bias f4 [8]
0.18500467 -0.29278097 0.08950362 -0.28087932 0.06683463 -0.13244803 0.23950823 0.23669513
00000000: dd71 3d3e 63e7 95be ad4d b73d 6acf 8fbe
00000010: 98e0 883d 75a0 07be a541 753e 3560 723e

running_mean f4 [8]
-0.0051244134 0.07151527 0.018742597 0.04161451 -0.016605634 -0.17903128 0.007481635 -0.012728693
00000000: b2ea a7bb 9976 923d 138a 993c fa73 2a3d
00000010: 8a08 88bc fa53 37be 8128 f53b 028c 50bc

running_var f4 [8]
2.4191688e-05 0.0020055524 0.00018815655 0.0006968911 0.00014850282 0.01104662 7.1129776e-05 6.3571206e-05
00000000: 41ef ca37 966f 033b e44b 4539 92af 363a
00000010: 6cb7 1b39 e2fc 343c 822b 9538 8851 8538

weight f4 [8, 8, 16]
0.0069055203 0.005773466 -0.08558438 -0.022909746 -0.019771092 -0.13199244 0.12676188 -0.0040311203
0.18275405 -0.12926792 -0.016534468 -0.087455556 0.089451075 -0.127425 -0.1548903 0.034787
-0.17049018 -0.09196537 0.083963215 -0.017549437 0.08685239 -0.044230163 -0.018384114 0.124028616
-0.09049519 0.028149113 0.027677588 0.011555767 -0.004467525 -0.021870432 0.061647654 0.031977158
0.0033005413 -0.078109816 -0.13401996 -0.13933189 -0.07167529 0.06241939 0.033883825 0.07435868
0.06240206 0.024221336 -0.02795509 -0.12586962 0.1189468 0.016425973 -0.14323096 0.10027025
0.00064533873 -0.1346945 -0.02691882 -0.11637369 0.04278469 0.18371254 -0.051212586 0.11146235
-0.07840399 0.13771911 0.13310194 -0.048608977 -0.016629905 0.15796696 0.09941667 -0.1335162
0.047467377 0.018344939 -0.00038026023 0.016096087 -0.11355681 0.20416191 0.018853242 -0.07773219
-0.025736189 -0.02775868 -0.024695158 0.19585231 -0.01518676 -0.069060065 -0.103933476 0.009700371
0.096042596 0.038521864 0.12701993 0.18350628 -0.16564937 -0.09091349 -0.07408875 -0.052536216
-0.0067157927 0.11040466 -0.041657683 0.08994197 0.05631776 0.10221239 0.10398702 -0.0063851243
-0.08183902 -0.12382826 0.044827078 0.033771202 0.095319346 -0.17886898 0.08717132 0.08729369
-0.18600924 -0.055580746 0.008899676 -0.004026199 0.034540825 0.14809197 0.16009845 -0.06271731
0.018202314 0.12277593 -0.100757815 0.055114664 -0.10701468 -0.018603513 0.034776993 0.045703292
-0.09299435 -0.0698739 0.041962877 0.086756065 0.081939965 -0.022015594 0.07568579 0.14904475
0.05120011 -0.06492817 0.09265735 0.098614946 0.061872102 -0.06227303 -0.060848795 -0.09525704
0.037851885 -0.09763899 -0.074909136 0.050038062 -0.09037439 0.18510532 0.08209016 -0.091935225
0.059353936 -0.04319056 0.040055815 -0.15205376 -0.023031682 -0.08252473 -0.036679283 0.15005615
-0.010081488 0.16241376 0.06523773 -0.18105742 0.010614208 0.07425057 -0.05133138 0.031974763
-0.047940448 0.029420588 0.07810879 -0.031475343 0.038536094 0.04030238 -5.0032513e-06 0.11287375
0.019397294 0.13250466 -0.03628111 -0.102447055 -0.015579619 0.032789264 0.09515066 -0.038237024
-0.007630529 -0.040045563 -0.14187212 -0.13565797 -0.017270008 0.013926805 0.06937574 -0.06412466
0.02636651 -0.039307717 -0.12318433 0.024592608 0.051297374 0.009330122 -0.08895806 -0.12489161
0.014168697 0.10499891 -0.04543334 -0.047762204 -0.050732568 0.18412921 0.1641833 -0.017802816
-0.022761337 -0.11557512 -0.15406953 0.09081429 0.09593266 -0.060342412 -0.12264304 -0.08854897
0.035993796 -0.063534506 0.2825149 0.2530303 0.0029289448 -0.06311304 0.010768007 -0.059433624
-0.02705498 0.044299703 0.089362524 0.075697534 0.07639414 0.14922765 0.051025193 0.11406015
-0.070019804 0.081451744 -0.004340348 -0.0998903 -0.066052146 -0.075186595 -0.15321092 -0.011891167
-0.061127786 0.012294523 0.09040943 -0.105772495 -0.15670425 -0.0633648 0.018210003 -0.03750287
-0.044021297 -0.03613777 0.15798374 0.091717936 -0.015193776 0.06734364 -0.007021988 0.07727688
-0.09623309 -0.15363921 -0.015095734 -0.1350764 -0.036271427 0.14894822 0.15496863 0.14124532
00000000: b447 e23b 582f bd3b dd46 afbd 38ad bbbc
00000010: fcf6 a1bc 0729 07be decd 013e 7d17 84bb
00000020: e123 3b3e cf5e 04be 4b73 87bc e61b b3bd
00000030: 2032 b73d b37b 02be 909b 1ebe d07c 0e3d
00000040: fa94 2ebe 5758 bcbd e8f4 ab3d d6c3 8fbc
00000050: aadf b13d b02a 35bd 489a 96bc b702 fe3d
00000060: 8b55 b9bd f898 e63c 1cbc e23c 6654 3d3c
00000070: 5164 92bb 9f29 b3bc 4082 7c3d 7bfa 023d
00000080: e54d 583b 0af8 9fbd 873c 09be 05ad 0ebe
00000090: 7fca 92bd 79ab 7f3d c4c9 0a3d 5d49 983d
000000a0: 4d99 7f3d d36b c63c 1302 e5bc f7e3 00be
000000b0: 619a f33d c38f 863c 23ab 12be 7d5a cd3d
000000c0: f32b 293a 5bed 09be db84 dcbc 5455 eebd
000000d0: 003f 2f3d 241f 3c3e 4ac4 51bd 5f46 e43d
000000e0: 4592 a0bd 3d06 0d3e e04b 083e 351a 47bd
000000f0: 703b 88bc 17c2 213e f89a cb3d 79b8 08be
00000100: 276d 423d 2048 963c aa5d c7b9 f1db 833c
00000110: 7990 e8bd d20f 513e 1d72 9a3c 0e32 9fbd
00000120: b3d4 d2bc 2c66 e3bc 804d cabc 828d 483e
00000130: e3d1 78bc 5d6f 8dbd 13db d4bd 4eee 1e3c
00000140: fbb1 c43d 1ac9 1d3d 8311 023e 12e9 3b3e
00000150: fd9f 29be da30 babd d8bb 97bd 3730 57bd
00000160: 2710 dcbb d71b e23d 3fa1 2abd 7f33 b83d
00000170: 74ad 663d bb54 d13d 26f7 d43d 4e3a d1bb
00000180: 379b a7bd ac99 fdbd 999c 373d ac53 0a3d
00000190: ca36 c33d 6e29 37be e186 b23d 09c7 b23d
000001a0: 3579 3ebe a3a8 63bd f2cf 113c 35ee 83bb
000001b0: ae7a 0d3d 6ca5 173e d9f0 233e ef71 80bd
000001c0: 051d 953c f271 fb3d 1d5a cebd eabf 613d
000001d0: 832a dbbd 6566 98bc 5272 0e3d 6033 3b3d
000001e0: d273 bebd 0c1a 8fbd 44e1 2b3d 2aad b13d
000001f0: 24d0 a73d 0c5a b4bc 2701 9b3d 309f 183e
00000200: 35b7 513d 0ff9 84bd 23c3 bd3d a2f6 c93d
00000210: 9a6d 7d3d 0112 7fbd 963c 79bd 1f16 c3bd
00000220: 940a 1b3d f3f6 c7bd f669 99bd b6f4 4c3d
00000230: 3516 b9bd 408c 3d3e e31e a83d 8948 bcbd
00000240: 1d1d 733d 96e8 30bd 9111 243d fbb3 1bbe
00000250: f0ac bcbc ba02 a9bd 043d 16bd 52a8 193e
00000260: d32c 25bc cb4f 263e 5c9b 853d 1e67 39be
00000270: 37e7 2d3c af10 983d da40 52bd f8f7 023d
00000280: 345d 44bd 7203 f13c 80f7 9f3d 4aec 00bd
00000290: 06d8 1d3d 1c14 253d 9ae1 a7b6 5a2a e73d
000002a0: 13e7 9e3c 4daf 073e 809b 14bd c3cf d1bd
000002b0: a941 7fbc 094e 063d 59de c23d 6d9e 1cbd
000002c0: 8409 fabb d106 24bd ed46 11be ece9 0abe
000002d0: d579 8dbc 412d 643c de14 8e3d ca53 83bd
000002e0: 94fe d73c 2101 21bd 1148 fcbd 7076 c93c
000002f0: 321d 523d 5edd 183c a52f b6bd 2cc7 ffbd
00000300: d323 683c ab09 d73d 4f18 3abd 4da2 43bd
00000310: f4cc 4fbd 5e8c 3c3e ab1f 283e 36d7 91bc
00000320: fc75 babc a6b2 ecbd 67c4 1dbe d8fc b93d
00000330: 5878 c43d 9b29 77bd 462c fbbd 2a59 b5bd
00000340: 3b6e 133d 611e 82bd cba5 903e 308d 813e
00000350: 8af3 3f3b 6941 81bd 4b6c 303c ac70 73bd
00000360: 68a2 ddbc 9b73 353d b303 b73d 4f07 9b3d
00000370: 8874 9c3d 22cf 183e cbff 503d 5e98 e93d
00000380: 8b66 8fbd 2cd0 a63d 7a39 8ebb 4993 ccbd
00000390: 5946 87bd 6efb 99bd 53e3 1cbe 2bd3 42bc
000003a0: 2161 7abd f86e 493c 9428 b93d 409f d8bd
000003b0: 1477 20be 67c5 81bd 252d 953c 9c9c 19bd
000003c0: ad4f 34bd 3305 14bd 7dc6 213e 9dd6 bb3d
000003d0: 51ef 78bc 76eb 893d b418 e6bb 5743 9e3d
000003e0: db15 c5bd 9953 1dbe 1954 77bc 7851 0abe
000003f0: 5991 14bd e285 183e 19b0 1e3e 9da2 103e

weight f4 [16]
1.0356299 1.039605 0.9844036 0.872167 0.940779 0.88973665 1.0373211 0.9268355
0.9595582 1.0717993 0.94219047 0.91146165 1.0255443 0.8907587 1.07077 0.8290818
00000000: 858f 843f c711 853f e001 7c3f 5646 5f3f
00000010: e4d6 703f c8c5 633f f0c6 843f 1745 6d3f
00000020: 9ba5 753f b830 893f 6533 713f 8d55 693f
00000030: 0945 833f c308 643f fe0e 893f b43e 543f

bias f4 [16]
0.23774132 0.3011469 0.17114894 -0.10820185 0.2388051 0.01908927 -0.17087483 0.31768435
-0.81795055 -0.28169975 -0.078892946 -0.43497583 -0.038330022 0.42282102 -0.17670952 0.43171096
00000000: 7672 733e ed2f 9a3e ab41 2f3e ee98 ddbd
00000010: 5389 743e 1a61 9c3c d0f9 2ebe 86a7 a23e
00000020: 3565 51bf f33a 90be a092 a1bd 27b5 debe
00000030: f1ff 1cbd ff7b d83e 57f3 34be 3809 dd3e

running_mean f4 [16]
0.04107411 0.027504385 -0.039662533 0.050596207 -0.00503674 -0.029764844 0.037543412 -0.003613673
0.022147283 -0.047844507 -0.015025541 -0.024044577 -0.0056872577 0.012034889 -0.009044939 0.046837322
00000000: 533d 283d e050 e13c 2e75 22bd f83d 4f3d
00000010: 3d0b a5bb 67d5 f3bc 1fc7 193d 5fd3 6cbb
00000020: 386e b53c 9af8 43bd b02d 76bc 22f9 c4bc
00000030: 2d5c babb fc2d 453c 3931 14bc 7ed8 3f3d

running_var f4 [16]
0.051630158 0.015318528 0.012386242 0.103736036 0.0024944954 0.035185162 0.025164321 0.03266966
0.019983578 0.12649503 0.06096054 0.026202878 0.0022340433 0.010674423 0.01868525 0.0109497905
00000000: 257a 533d 90fa 7a3c aaef 4a3c 8f73 d43d
00000010: b07a 233b 511e 103d 6825 ce3c 9fd0 053d
00000020: 9ab4 a33c ea87 013e c2b1 793d 6ba7 d63c
00000030: 0769 123b c6e3 2e3c cf11 993c c066 333c

weight f4 [8, 16, 16]
-0.089154914 -0.013901081 0.07637599 0.14647113 -0.047332134 -0.014010013 0.1279168 0.042726766
0.069483474 -0.10803635 0.12768954 0.115155235 0.091557145 -0.08640985 0.082347594 -0.011360409
-0.118121654 -0.016854078 0.14485046 0.17906238 -0.079721466 0.041414015 0.06484556 0.009451597
0.15620086 0.020764967 0.028868103 0.17704394 0.07098484 0.042997945 0.04128455 -0.062113695
0.1586619 -0.048486523 -0.110006355 0.120349295 0.08674532 0.0032444259 0.18509892 -0.10648372
0.20674354 -0.059586596 -0.0584695 0.04756376 -0.011234184 0.04884625 0.11412809 0.07045126
0.023964643 0.019504936 0.0768712 0.10531228 0.08897995 0.08873818 0.17691 -0.12854141
0.07789731 -0.08213153 -0.06862651 -0.03873438 -0.06692879 -0.010036642 -0.034349587 0.030231988
0.04086186 0.055642884 -0.015559635 0.0057136235 0.0042172214 0.097086586 -0.049335077 -0.106190644
0.048598643 -0.08286764 0.06960618 -0.07526355 -0.017152691 0.06476566 0.09183838 -0.042689916
0.09920505 0.040470973 0.07863092 0.041617163 -0.04020518 -0.020136664 0.09058616 -0.1069275
0.013807563 -0.12020433 0.074156135 0.051377956 0.0339772 -0.035901483 0.08057951 0.08723289
-0.041002814 0.08948468 0.102679566 0.118509956 -0.051858325 -0.044500355 0.2772899 -0.104469664
0.19783564 -0.07822119 0.012789205 0.08170796 -0.00566511 -0.07333175 -0.034864455 -0.0071171755
0.10327984 -0.03013925 0.009873625 -0.07173531 0.08711572 -0.041589163 -0.07499763 0.09470439
-0.09784278 0.12076004 0.07945699 -0.0072336444 -0.0720383 0.11530393 -0.019364966 0.017091656
0.03709012 -0.04714887 0.047112457 0.007856979 -0.07575707 -0.08047394 0.09024195 0.0663243
0.10350457 -0.09876193 0.091109924 0.058790803 0.013139576 -0.075101994 -0.009948668 -0.036528245
0.1485884 -0.088468805 -0.106251605 0.07262999 0.06025408 0.11296457 0.0145021975 0.0033541706
-0.048753414 0.065048225 -0.062267084 -0.067289166 -0.043172665 0.021999476 0.12749003 0.064742506
0.006110279 0.067860655 -0.027233867 0.026019031 -0.011501879 0.01155108 -0.07416375 0.084502526
-0.04261335 -0.027867187 -0.056685105 -0.008092862 -0.0015847529 0.07993684 0.092473485 0.0047404263
-0.04611691 0.07114118 0.021708792 0.13670494 -0.12010688 -0.00533255 0.12859936 -0.12887451
0.17902501 -0.12223748 -0.045833755 0.104587115 -0.05861328 -0.074368335 -0.057742283 -0.005429176
-0.1476907 0.023459228 0.08980083 0.09655141 0.07162363 -0.0044929744 0.10730657 0.08351903
-0.06602795 -0.038244627 0.14049011 0.05725082 -0.017935405 -0.037639912 0.03989005 -0.07936194
0.1216264 -0.053609308 0.02148828 0.010411472 0.027812207 -0.027117366 0.05454767 -0.11637441
-0.063509494 -0.14068295 0.092526816 0.011715269 0.108633 0.06759076 -0.058147456 -0.07440823
0.104409225 -0.135837 -0.13490021 0.22786117 -0.07893911 -0.045753315 0.24634506 -0.16499071
0.10896596 -0.096605375 -0.04330365 0.15046322 0.006052213 -0.1418607 -0.034064755 0.04934708
-0.09720799 0.052176714 0.1031293 0.110905334 -0.027612243 -0.0050784284 0.0719597 -0.033883043
-0.04818956 -0.06441266 0.09438847 -0.021343961 -0.10314667 -0.031100942 0.030188821 0.0028749313
00000000: da96 b6bd 5cc1 63bc 046b 9c3d 87fc 153e
00000010: 57df 41bd 418a 65bc 9ffc 023e 4302 2f3d
00000020: 5a4d 8e3d 2942 ddbd 0cc1 023e 82d6 eb3d
00000030: 5082 bb3d a6f7 b0bd dba5 a83d 0221 3abc
00000040: c4e9 f1bd 9011 8abc ae53 143e 215c 373e
00000050: 0245 a3bd bea1 293d c0cd 843d dfda 1a3c
00000060: 1ef3 1f3e 4b1b aa3c cd7c ec3c 024b 353e
00000070: 8060 913d 9d1e 303d fd19 293d ee6a 7ebd
00000080: 4478 223e ce99 46bd 034b e1bd b179 f63d
00000090: 88a7 b13d 6fa0 543b 928a 3d3e 2314 dabd
000000a0: 94b4 533e 1311 74bd b77d 6fbd 38d2 423d
000000b0: 950f 38bc 0113 483d fdbb e93d c048 903d
000000c0: 8051 c43c d1c8 9f3c a66e 9d3d f7ad d73d
000000d0: 1f3b b63d 5dbc b53d e527 353e 5ca0 03be
000000e0: a088 9f3d 9334 a8bd 0e8c 8cbd f1a7 1ebd
000000f0: f611 89bd ba70 24bc 27b2 0cbd 13a9 f73c
00000100: c45e 273d cbe9 633d d7ed 7ebc 5939 bb3b
00000110: 9e30 8a3b 55d5 c63d 9413 4abd 7b7a d9bd
00000120: 5f0f 473d 82b6 a9bd af8d 8e3d c723 9abd
00000130: cd83 8cbc dca3 843d c315 bc3d 9fdb 2ebd
00000140: 042c cb3d e4c4 253d 3f09 a13d c276 2a3d
00000150: 30ae 24bd a5f5 a4bc 3d85 b93d cefc dabd
00000160: 1e39 623c b02d f6bd 2cdf 973d b171 523d
00000170: ad2b 0b3d 6f0d 13bd df06 a53d 28a7 b23d
00000180: 91f2 27bd be43 b73d aa49 d23d 59b5 f23d
00000190: 6569 54bd 0146 36bd f1f8 8d3e 31f4 d5bd
000001a0: 6d95 4a3e 6e32 a0bd d089 513c 8156 a73d
000001b0: 63a2 b9bb f52e 96bd 08ce 0ebd 3237 e9bb
000001c0: 6184 d33d 97e6 f6bc fcc4 213c f6e9 92bd
000001d0: ba69 b23d 6659 2abd 5c98 99bd 60f4 c13d
000001e0: cc61 c8bd 0a51 f73d 59ba a23d 3508 edbb
000001f0: d188 93bd 7824 ec3d 47a3 9ebc cd03 8c3c
00000200: cfeb 173d 2c1f 41bd fef8 403d 8fba 003c
00000210: 8626 9bbd 85cf a4bd c5d0 b83d 09d5 873d
00000220: 34fa d33d b243 cabd d797 ba3d a0ce 703d
00000230: 6047 573c 13cf 99bd bdff 22bc a49e 15bd
00000240: 8f27 183e 222f b5bd 719a d9bd 08bf 943d
00000250: fbcc 763d f859 e73d a09a 6d3c a5d1 5b3b
00000260: a9b1 47bd 0138 853d c50b 7fbd e7ce 89bd
00000270: d2d5 30bd 3f38 b43c bf8c 023e b897 843d
00000280: bc38 c83b 87fa 8a3d 8f19 dfbc dd25 d53c
00000290: 6172 3cbc be40 3d3c 2ae3 97bd a90f ad3d
000002a0: 568b 2ebd ba49 e4bc a42e 68bd ec97 04bc
000002b0: 7cb7 cfba edb5 a33d bd62 bd3d 9455 9b3b
000002c0: 16e5 3cbd 78b2 913d a3d6 b13c 61fc 0b3e
000002d0: 99fa f5bd acbc aebb 8daf 033e aef7 03be
000002e0: 5552 373e a557 fabd 2dbc 3bbd c531 d63d
000002f0: 7b14 70bd 6d4e 98bd 2c83 6cbd 3be7 b1bb
00000300: 3b3c 17be 912d c03c 7fe9 b73d bfbc c53d
00000310: 69af 923d cd39 93bb 8cc3 db3d 060c ab3d
00000320: a939 87bd 66a6 1cbd a4dc 0f3e d67f 6a3d
00000330: 45ed 92bc 4f2c 1abd c063 233d 8388 a2bd
00000340: 4317 f93d 6f95 5bbd 3008 b03c e194 2a3c
00000350: 6dd6 e33c 3d25 debc 616d 5f3d b555 eebd
00000360: 4411 82bd 310f 10be b37e bd3d 66f1 3f3c
00000370: fa7a de3d 066d 8a3d 072c 6ebd 5863 98bd
00000380: 81d4 d53d db18 0bbe 4823 0abe 7054 693e
00000390: d4aa a1bd d467 3bbd e141 7c3e 53f3 28be
000003a0: 8c29 df3d 0ad9 c5bd 2b5f 31bd 0813 1a3e
000003b0: a451 c63b ee43 11be 7c87 0bbd 2a20 4a3d
000003c0: fc14 c7bd 40b7 553d 7435 d33d 5622 e33d
000003d0: 1233 e2bc f268 a6bb 9b5f 933d f2c8 0abd
000003e0: 6b62 45bd c9ea 83bd be4e c13d 88d9 aebc
000003f0: 903e d3bd 67c7 febc 8c4e f73c 5869 3c3b

weight f4 [16]
1.0468593 0.99233574 0.9903449 1.0928749 0.9866644 0.9372373 1.1450646 0.94185483
1.1193216 0.86614746 0.958135 0.97681916 0.96673054 0.8151374 1.0254624 1.037114
00000000: 7cff 853f b709 7e3f 3e87 7d3f 53e3 8b3f
00000010: 0a96 7c3f c9ee 6f3f 7a91 923f 661d 713f
00000020: ee45 8f3f d7bb 5d3f 5648 753f d210 7a3f
00000030: a77b 773f d8ac 503f 5a42 833f 27c0 843f

bias f4 [16]
-0.22912979 -0.04587418 -0.07259042 -0.3416751 0.36325088 -0.04673001 -0.37674448 -0.12695767
-0.28768522 0.03543195 -0.1179249 -0.19200347 -0.26313442 0.208237 -0.23237164 -0.1343302
00000000: 00a1 6abe 90e6 3bbd 49aa 94bd 0af0 aebe
00000010: 05fc b93e f867 3fbd a7e4 c0be 3101 02be
00000020: 7a4b 93be 1821 113d 9c82 f1bd 8f9c 44be
00000030: 8eb9 86be 153c 553e d5f2 6dbe db8d 09be

running_mean f4 [16]
0.023905132 -0.03848577 -0.048870794 0.07135047 0.101944484 0.07318847 0.13389498 0.048653
0.13288316 -0.02596489 0.01890462 -0.02538591 -0.0061298003 0.07222653 0.031589184 0.034837306
00000000: b2d4 c33c 41a3 1dbd be2c 48bd 3220 923d
00000010: 45c8 d03d d6e3 953d c41b 093e 5e48 473d
00000020: 8612 083e 52b4 d4bc dddd 9a3c 1df6 cfbc
00000030: 7edc c8bb 81eb 933d a963 013d 90b1 0e3d

running_var f4 [16]
0.057222024 0.024250343 0.008653462 0.52063566 0.117076084 0.051154114 0.77523893 0.01639352
0.7427315 0.020018527 0.041769054 0.035042997 0.043850195 0.020914027 0.15690395 0.1698955
00000000: a461 6a3d a8a8 c63c 40c7 0d3c 6148 053f
00000010: 96c5 ef3d fa86 513d 0f76 463f b44b 863c
00000020: a723 3e3f e5fd a33c 0716 2b3d 3f89 0f3d
00000030: 439c 333d e553 ab3c 6eab 203e 16f9 2d3e

weight f4 [8, 16, 16]
0.059727136 -0.012760947 0.0031292117 0.0050280443 0.02877985 0.040668778 0.08842334 -0.11931516
-0.0400947 -0.0142763825 0.06625957 -0.084039986 -0.04814627 0.08170139 -0.030356634 0.024453828
0.13727121 0.07216188 -0.08316622 0.03575123 0.07782025 0.040021166 -0.013591782 0.0013726029
-0.03472815 -0.025673958 0.06940285 -0.050145708 0.064766645 -0.019682588 0.013866969 0.016365105
-0.01695531 0.059971247 -0.11040234 0.009280487 -0.039644416 0.038170498 0.059520654 0.19331878
-0.004626657 -0.028429866 -0.0901231 -0.004462031 0.009281788 -0.06364507 -0.008656518 0.0069424435
0.02771266 -0.05425558 0.013867361 0.03403492 -0.033764824 0.08956548 -0.09152463 0.0040737046
0.027099714 0.1673851 0.06566402 0.017350923 -0.06420513 -0.0946 -0.0949796 -0.045089178
0.08865269 -0.08839116 0.06595752 -0.037264545 0.10955638 -0.033626586 0.066087306 -0.03974469
0.06473347 0.031364158 0.02335689 0.019812614 0.08819447 0.1104231 0.18154077 -0.06178962
0.106195495 -0.092736304 0.08691559 -0.009879099 0.01052817 -0.01873553 0.02522379 0.05841387
0.089720525 -0.05222869 0.057761133 -0.07086856 0.14763527 0.09462498 0.00990087 -0.12512782
-0.03168677 -0.08726785 -0.05557633 -0.083030455 -0.14619908 0.108626835 -0.1617083 0.12051093
0.005557308 0.112621196 0.1362432 -0.052620556 -0.02260917 0.06030886 0.0023154705 -0.024874084
0.054625984 -0.03323639 0.0039707813 -0.010511982 0.06899992 0.00056642597 -0.050982516 0.06460754
-0.022886347 0.050976016 -0.061600108 0.05988789 0.06151021 -0.073186085 0.06163747 0.0010505803
-0.03563922 -0.018092459 0.077742465 0.059107136 -0.057027947 0.074724 -0.079562224 0.120901644
0.025506262 0.110146284 0.0019088979 -0.0068570864 -0.014322983 0.08857917 -0.11781608 -0.044091348
0.021570727 -0.05281688 -0.033401005 -0.018285457 0.037354637 -0.07578975 -0.07366934 -0.044078827
-0.023012422 0.08127637 0.13930964 -0.10754447 0.117884964 -0.104536615 0.06293143 -0.0185956
-0.015041295 0.03309959 -0.09529945 0.072571926 0.07284839 0.027808478 -0.013016134 0.052236564
-0.0047298507 -0.0858045 -0.095049106 -0.06555628 0.08776943 0.088043675 0.082722194 -0.046852376
0.0095989 -0.046816297 0.05299118 0.026765715 -0.10670138 0.14123775 -0.018689668 -0.014333047
0.032460958 0.06975687 0.052631676 0.009225451 -0.0005664966 -0.058138587 -0.16186005 0.055052567
-0.012260424 -0.065436475 -0.009528199 0.022145767 -0.055189896 0.016535886 -0.0022817731 -0.1394621
0.06084913 -0.041498683 0.03529679 -0.0151860295 -0.039351102 -0.0050473316 -0.045819905 0.042970914
0.0013699527 0.010131949 -0.12397796 -0.07703188 0.0426227 -0.09168081 0.051139623 0.048618175
-0.038453143 -0.03951402 0.091894746 -0.047661662 0.008540597 0.0660063 0.056199174 -0.08576775
0.058992572 0.07256751 -0.031671334 0.034022074 -0.0065955403 -0.010981764 -0.009447287 0.0060095666
0.026529511 0.05235438 0.122013785 -0.08645391 0.039630935 0.1139903 0.10023229 0.04214236
0.079981744 0.038214486 -0.010154366 0.03766608 -0.029314142 -0.02239215 0.02046766 -0.07704853
-0.05203528 -0.038352594 0.10659267 -0.1195113 0.14403234 0.015208767 0.03464733 0.023257492
00000000: 71a4 743d 4b13 51bc 7613 4d3b 4bc2 a43b
00000010: b8c3 eb3c 4e94 263d 4c17 b53d 825b f4bd
00000020: 573a 24bd 7de7 69bc 19b3 873d 281d acbd
00000030: 0635 45bd 0f53 a73d 7aae f8bc 6553 c83c
00000040: d390 0c3e 9cc9 933d 0d53 aabd e26f 123d
00000050: 3960 9f3d 3ced 233d 11b0 5ebc e9e8 b33a
00000060: 1b3f 0ebd 3152 d2bc 1523 8e3d 9665 4dbd
00000070: 60a4 843d 613d a1bc 4932 633c 1d10 863c
00000080: dde5 8abc 69a4 753d 9f1a e2bd 2f0d 183c
00000090: 2f62 22bd ab58 1c3d eecb 733d 5cf5 453e
000000a0: 369b 97bb c0e5 e8bc 7692 b8bd 3b36 92bb
000000b0: a412 183c 5958 82bd 11d4 0dbc 707d e33b
000000c0: a905 e33c 193b 5ebd ed33 633c 3368 0b3d
000000d0: fc4c 0abd 1b6e b73d 4471 bbbd b67c 853b
000000e0: 3800 de3c 0067 2b3e dc7a 863d 8623 8e3c
000000f0: fb7d 83bd a5bd c1bd aa84 c2bd 6eaf 38bd
00000100: 8b8f b53d 6d06 b5bd bc14 873d b5a2 18bd
00000110: 185f e03d 08bc 09bd c858 873d 54cb 22bd
00000120: fb92 843d b477 003d f356 bf3c 104e a23c
00000130: 4d9f b43d 8225 e23d d3e5 393e 1d17 7dbd
00000140: 067d d93d 88ec bdbd cd00 b23d f2db 21bc
00000150: 587e 2c3c 417b 99bc 1fa2 ce3c 6243 6f3d
00000160: 65bf b73d c0ed 55bd f096 6c3d 8923 91bd
00000170: b32d 173e beca c13d 4237 223c 8221 00be
00000180: fdc9 01bd 7db9 b2bd 01a4 63bd df0b aabd
00000190: 36b5 15be bf77 de3d dc96 25be 6fce f63d
000001a0: 141a b63b f1a5 e63d 5683 0b3e a788 57bd
000001b0: de36 b9bc 6c06 773d 26bf 173b bcc4 cbbc
000001c0: 7fbf 5f3d e222 08bd 541d 823b 733a 2cbc
000001d0: d44f 8d3d 347c 143a 0bd3 50bd f550 843d
000001e0: 267c bbbc 3acc 503d 6550 7cbd 014d 753d
000001f0: 21f2 7b3d 96e2 95bd 9277 7c3d a0b3 893a
00000200: 6efa 11bd a336 94bc 7137 9f3d 531a 723d
00000210: 2396 69bd e608 993d 85f1 a2bd 489b f73d
00000220: 82f2 d03c 6094 e13d fc33 fa3a 69b1 e0bb
00000230: f2aa 6abc ff68 b53d 8f49 f1bd 2199 34bd
00000240: 18b5 b03c 8356 58bd 7ecf 08bd 62cb 95bc
00000250: 2d01 193d a837 9bbd f3df 96bd 008c 34bd
00000260: 8c84 bcbc 3a74 a63d 30a7 0e3e 4640 dcbd
00000270: ac6d f13d 4b17 d6bd 32e2 803d cd55 98bc
00000280: c46f 76bc 7093 073d 5c2c c3bd 97a0 943d
00000290: 8931 953d 9bce e33c 9f41 55bc 02f6 553d
000002a0: ddfc 9abb 45ba afbd 1ba9 c2bd 5f42 86bd
000002b0: 75c0 b33d 3e50 b43d 416a a93d 47e8 3fbd
000002c0: b444 1d3c 72c2 3fbd 480d 593d c643 db3c
000002d0: 4186 dabd a1a0 103e 131b 99bc 28d5 6abc
000002e0: c8f5 043d b1dc 8e3d 5094 573d 5926 173c
000002f0: f180 14ba ba22 6ebd a4be 25be cd7e 613d
00000300: f2df 48bc 8f03 86bd 2a1c 1cbc 0a6b b53c
00000310: cd0e 62bd 4476 873c cd89 15bb 27cf 0ebe
00000320: f03c 793d 86fa 29bd 5e93 103d d3ce 78bc
00000330: 9f2e 21bd 1664 a5bb a7ad 3bbd 4502 303d
00000340: fc8f b33a 7900 263c 28e8 fdbd e4c2 9dbd
00000350: 2495 2e3d 26c3 bbbd c877 513d da23 473d
00000360: 0b81 1dbd 74d9 21bd 5033 bc3d e038 43bd
00000370: dced 0b3c 502e 873d 1b31 663d 01a7 afbd
00000380: 32a2 713d 469e 943d cdb9 01bd bb5a 0b3d
00000390: 671f d8bb dbec 33bc cbc8 1abc e6eb c43b
000003a0: 6b54 d93c 8c71 563d 5de2 f93d bf0e b1bd
000003b0: 0c54 223d bf73 e93d 9646 cd3d 789d 2c3d
000003c0: 78cd a33d cb86 1c3d 7f5e 26bc bf47 1a3d
000003d0: 3624 f0bc be6f b7bc cbab a73c 9fcb 9dbd
000003e0: f222 55bd 9c17 1dbd 424d da3d 57c2 f4bd
000003f0: 377d 133e 312e 793c 5cea 0d3d 7f86 be3c

weight f4 [16]
1.0096663 1.0274228 0.80105525 0.8791156 0.88382596 0.8225053 1.0496036 0.98358727
0.8205024 1.0598215 1.0507566 0.7793983 0.92643 0.8726952 1.027912 0.8238485
00000000: bf3c 813f 9782 833f f511 4d3f b80d 613f
00000010: 6b42 623f b58f 523f 6959 863f 60cc 7b3f
00000020: 720c 523f 3ba8 873f 317f 863f a686 473f
00000030: 842a 6d3f f468 5f3f 9f92 833f bce7 523f

bias f4 [16]
0.24841402 0.2935688 0.31475392 -0.08063127 0.30755988 -0.08944371 -0.12111305 0.29468995
-0.82054216 -0.28192446 -0.07201254 -0.45055538 -0.0999862 0.443665 -0.11316481 0.442575
00000000: 3f60 7e3e a64e 963e 6d27 a13e 0222 a5bd
00000010: 7d78 9d3e 442e b7bd 1e0a f8bd 9ae1 963e
00000020: 0d0f 52bf 6758 90be 507b 93bd 32af e6be
00000030: 91c5 ccbd 0f28 e33e f4c2 e7bd 3199 e23e

running_mean f4 [16]
0.18378673 0.19994539 -0.0072740507 -0.007831052 0.10424063 -0.05614737 0.11217434 0.04086938
0.04797708 -0.09276484 -0.08758031 0.10195238 -0.0027453688 0.049873047 0.079023294 0.012863394
00000000: 9732 3c3e 7cbe 4c3e 295b eebb d04d 00bc
00000010: 1d7c d53d c9fa 65bd a9bb e53d a766 273d
00000020: 9d83 443d 7efb bdbd 4e5d b3bd 69cc d03d
00000030: a5eb 33bb ae47 4c3d f7d6 a13d fcc0 523c

running_var f4 [16]
0.23596717 0.21974693 0.12588058 0.114315554 0.021244286 0.04277666 0.0874575 0.020646587
0.10753989 0.15246928 0.033052914 0.10588172 0.08634787 0.1703074 0.13376676 0.12605987
00000000: 61a1 713e 5705 613e d7e6 003e 461e ea3d
00000010: 7f08 ae3c 9436 2f3d eb1c b33d 0823 a93c
00000020: e03d dc3d e820 1c3e 7e62 073d 84d8 d83d
00000030: 27d7 b03d 1065 2e3e 27fa 083e d715 013e

weight f4 [8, 16, 32]
0.063315794 -0.03599679 0.004332069 0.15098242 -0.05032482 0.070048034 -0.08582838 0.06812549
-0.04683153 0.096061 0.02608538 0.012581272 -0.13201112 -0.047145516 -0.13525203 -0.027494613
-0.07568051 0.019796759 -0.12198174 -0.07476395 -0.06251158 -0.04481013 -0.15797552 0.11981559
-0.042663034 -0.031917483 0.02859587 0.10157604 -0.0630805 0.06530444 0.028911501 0.06665722
0.039500408 -0.004654588 -0.01659898 0.020697825 -0.058373634 0.09848888 0.06745575 0.12871128
0.21555264 0.22565097 0.03964136 -0.013794934 0.06245059 0.0038973952 0.014996343 0.024112398
-0.089390814 0.018099165 0.05602037 0.04912468 0.06598321 0.09729058 -0.14549465 0.065801054
0.004117761 -0.12943298 -0.02546558 0.18931828 -0.1443899 0.11723995 -0.026191685 0.11572106
0.07699864 -0.0862664 -0.07417781 0.14325649 -0.03776311 -0.08088421 -0.011562877 -0.00992614
-0.049082696 0.134571 -0.038604446 -0.079450704 -0.08882574 6.343105e-05 0.020860389 -0.09054245
-0.10755965 -0.028865917 -0.042058185 -0.08756728 -0.029306745 -0.06626028 -0.08132392 0.011707449
-0.011156438 -0.027096696 -0.03297459 -0.061511725 -0.103167415 0.09289603 -0.018295497 0.030183973
0.03060033 -0.052093416 -0.036783595 0.097121574 -0.03204618 0.058804374 0.10367263 0.060569346
-0.0638649 0.13043143 0.08420873 -0.019589486 -0.06440856 -0.023155935 -0.02596187 -0.17251329
-0.060784783 -0.080247216 -0.0003337683 -0.020799045 -0.15816897 0.0423279 -0.07733805 -0.02617757
0.12374884 0.028526552 -0.07648839 -0.017972741 -0.002691923 0.02385698 -0.018038414 -0.049082242
-0.059533272 0.033029586 0.046693407 -0.05547099 -0.076202095 -0.020215474 -0.02349815 0.043951754
0.16186363 -0.07796697 -0.17434557 0.1824321 0.003499829 -0.009779579 -0.08720415 -0.029337598
0.079140164 0.13915014 0.07893794 -0.048982646 0.13890286 -0.04130417 0.041187175 -0.0685079
-0.09416805 -0.0732598 0.035530232 -0.004824188 0.05334241 0.033439767 -0.002662841 -0.02022524
0.0085189985 0.007162027 -0.041976776 0.12356024 0.014579022 -0.07132898 0.05657955 -0.042112723
-0.10491329 0.0103983525 -0.053458374 -0.055883817 -0.05107832 -0.08139848 -0.05705133 -0.0006111483
-0.009042125 0.039907686 -0.06720132 0.021085758 -0.065636955 0.019239817 0.034041725 0.037272327
0.10373285 0.031652372 0.003425133 -0.021144742 -0.0733028 0.03908657 0.052010015 -0.15522128
0.121148415 0.053254873 0.03802542 0.09965549 0.03245123 0.050877944 -0.06785229 0.10726132
0.15374044 0.015227451 0.037972998 0.025541676 -0.11689824 -0.031848885 0.16211212 0.11313676
-0.05221616 -0.072788306 0.13038765 0.10570174 0.033229504 0.091034055 -0.082532406 -0.08683159
-0.027414223 -0.09325515 0.0989995 0.11014928 0.09775602 0.090046115 0.06263361 0.03805074
0.016306153 0.054456525 0.19343323 0.021191295 0.08994009 0.12394029 -0.07311007 0.016473697
-0.07530058 -0.0022782201 -0.12690155 -0.021041136 -0.0030110828 -0.0054119825 0.14138718 0.06260056
0.089020155 -0.11297678 0.0738016 0.06660122 0.0075360844 0.050281066 -0.05009409 0.17940213
-0.075206704 -0.1503513 0.062121283 0.06306836 0.05748604 0.103341475 0.037134126 0.13059191
00000000: b6ab 813d 5f71 13bd 07f4 8d3b 239b 1a3e
00000010: 6621 4ebd 5875 8f3d cac6 afbd 6085 8b3d
00000020: 6bd2 3fbd a1bb c43d 02b1 d53c ae21 4e3c
00000030: ec2d 07be a81b 41bd 827f 0abe 623c e1bc
00000040: 62fe 9abd d02c a23c 90d1 f9bd d81d 99bd
00000050: 1206 80bd d48a 37bd 56c4 21be e061 f53d
00000060: 6fbf 2ebd e8bb 02bd e341 ea3c 1907 d03d
00000070: 5930 81bd 56be 853d d0d7 ec3c 9583 883d
00000080: 2ecb 213d 8485 98bb 96fa 87bc 7c8e a93c
00000090: 3119 6fbd 8ab4 c93d 3e26 8a3d e4cc 033e
000000a0: d5b9 5c3e 0c11 673e fb5e 223d 2604 62bc
000000b0: 31cc 7f3d 716b 7f3b 39b3 753c 5d87 c53c
000000c0: 8812 b7bd b344 943c 9e75 653d f636 493d
000000d0: 3522 873d 4940 c73d 8dfc 14be b4c2 863d
000000e0: 48ee 863b 148a 04be 319d d0bc a7dc 413e
000000f0: f2da 13be 801b f03d f28f d6bc 2aff ec3d
00000100: 77b1 9d3d 70ac b0bd 89ea 97bd d4b1 123e
00000110: 7ead 1abd 9fa6 a5bd 3972 3dbc 40a1 22bc
00000120: f00a 49bd fbcc 093e b21f 1ebd 0db7 a2bd
00000130: 45ea b5bd 4906 8538 68e3 aa3c 526e b9bd
00000140: 3c48 dcbd 3778 ecbc 3445 2cbd 7956 b3bd
00000150: b314 f0bc 78b3 87bd 288d a6bd 9ad0 3f3c
00000160: 7ec9 36bc e4f9 ddbc 5d10 07bd b8f3 7bbd
00000170: 7049 d3bd 4640 be3d 70e0 95bc 6144 f73c
00000180: 8bad fa3c e85f 55bd 65aa 16bd ade7 c63d
00000190: db42 03bd dbdc 703d 5152 d43d 9017 783d
000001a0: 9acb 82bd d18f 053e a075 ac3d 217a a0bc
000001b0: a3e8 83bd 84b1 bdbc fdad d4bc 53a7 30be
000001c0: 77f9 78bd a758 a4bd 9ffd aeb9 c262 aabc
000001d0: 0cf7 21be 0560 2d3d 6963 9ebd 5872 d6bc
000001e0: 0870 fd3d 84b0 e93c f2a5 9cbd 923b 93bc
000001f0: f96a 30bb b76f c33c 4cc5 93bc 760a 49bd
00000200: 29d9 73bd 084a 073d 9641 3f3d 8c35 63bd
00000210: d80f 9cbd ec9a a5bc 317f c0bc c106 343d
00000220: 94bf 253e 26ad 9fbd a587 32be 7bcf 3a3e
00000230: 635d 653b 873a 20bc 1798 b2bd 6755 f0bc
00000240: 3d14 a23d 607d 0e3e 37aa a13d 07a2 48bd
00000250: 8d3c 0e3e 902e 29bd e2b3 283d df4d 8cbd
00000260: 2edb c0bd 3c09 96bd 2688 113d 3914 9ebb
00000270: 927d 5a3d 23f8 083d 0f83 2ebb 67af a5bc
00000280: 4593 0b3c 70af ea3b d7ef 2bbd 270d fd3d
00000290: dadc 6e3c ee14 92bd f5bf 673d 647e 2cbd
000002a0: c7dc d6bd da5d 2a3c 2bf7 5abd 6ee6 64bd
000002b0: 8037 51bd 3fb4 a6bd a8ae 69bd 7835 20ba
000002c0: 6c25 14bc 3e76 233d d8a0 89bd 0abc ac3c
000002d0: ab6c 86bd d29c 9d3c 566f 0b3d deaa 183d
000002e0: e371 d43d eba5 013d 3278 603b bd37 adbc
000002f0: c71f 96bd 3d19 203d 7408 553d 54f2 1ebe
00000300: a91c f83d c821 5a3d 8bc0 1b3d 2d18 cc3d
00000310: 95eb 043d 6465 503d 24f6 8abd d3ab db3d
00000320: 226e 1d3e 8f7c 793c 9389 1b3d c73c d13c
00000330: 5868 efbd fa73 02bd b800 263e 3fb4 e73d
00000340: 9de0 55bd 0912 95bd 5784 053e 277a d83d
00000350: a91b 083d 1070 ba3d c006 a9bd c3d4 b1bd
00000360: cb93 e0bc 8efc bebd 40c0 ca3d f295 e13d
00000370: 4f34 c83d 196a b83d 0d46 803d 18db 1b3d
00000380: 7b94 853c ce0d 5f3d 5c13 463e 5e99 ad3c
00000390: 8332 b83d 68d4 fd3d bbba 95bd d9f3 863c
000003a0: 3137 9abd 314e 15bb 7bf2 01be 765e acbc
000003b0: 9655 45bb 0057 b1bb cdc7 103e b934 803d
000003c0: 3350 b63d 5f60 e7bd 4b25 973d 3866 883d
000003d0: 42f1 f63b 85f3 4d3d 762f 4dbd 31b5 373e
000003e0: f905 9abd b1f5 19be e372 7e3d fc29 813d
000003f0: 7b76 6b3d b2a4 d33d f419 183d e3b9 053e

weight f4 [32]
0.9355305 0.7823451 0.9442073 0.9438508 0.9928864 0.8757959 0.9547889 0.68997514
1.0501962 0.84047073 0.9373893 0.979665 0.99323356 0.9419163 0.88850576 0.8357635
0.8487333 0.81235856 0.68570375 0.6965602 0.86402994 0.8022576 1.0651011 0.9546389
0.9593486 0.9213244 1.0486065 0.9571213 0.9581001 0.8836223 0.65313387 0.9498087
00000000: ed7e 6f3f c547 483f 92b7 713f 35a0 713f
00000010: ce2d 7e3f 2934 603f 0c6d 743f 36a2 303f
00000020: d46c 863f 1729 573f bff8 6f3f 53cb 7a3f
00000030: 8e44 7e3f 6d21 713f 1d75 633f 99f4 553f
00000040: 9646 593f bbf6 4f3f 488a 2f3f c551 323f
00000050: 1131 5d3f c160 4d3f 3c55 883f 3763 743f
00000060: df97 753f eadb 6b3f bd38 863f e705 753f
00000070: 0c46 753f 1235 623f c833 273f aa26 733f

bias f4 [32]
0.084492266 0.20377581 0.066535406 0.017274326 -0.04493456 -0.53561103 0.067903064 -0.07444986
0.45085976 -0.20207982 -0.15567207 0.18733963 -0.030924767 -0.06518785 0.009139444 0.05348223
-0.005104273 -0.005710301 -0.352594 -0.017858109 -0.35674706 0.0010204931 -0.06625796 0.010150644
0.055704627 -0.17036399 -0.28661746 0.117144816 0.12910245 0.16865425 -0.19395182 -0.15101357
00000000: 480a ad3d 9baa 503e b743 883d e382 8d3c
00000010: 4d0d 38bd ce1d 09bf c310 8b3d 2b79 98bd
00000020: 17d7 e63e 03ee 4ebe 8068 1fbe f6d5 3f3e
00000030: f055 fdbc 3581 85bd 9bbd 153c 2f10 5b3d
00000040: bf41 a7bb 7a1d bbbb 3387 b4be 2b4b 92bc
00000050: 8da7 b6be 11c2 853a 41b2 87bd e34e 263c
00000060: 892a 643d e673 2ebe 86bf 92be 9fe9 ef3d
00000070: 6f33 043e b3b3 2c3e 4e9b 46be 4da3 1abe

running_mean f4 [32]
0.08166339 -0.18958232 -0.19799535 0.03210506 0.06646301 0.15429331 -0.021919766 0.16973025
0.14812492 0.38542083 -0.37564936 0.22878204 -0.061761606 0.0850399 -0.29879296 -0.020605335
-0.15810333 0.266549 -0.1297177 -0.27986786 0.24862163 0.059045207 0.27355027 0.1624073
0.0010963245 -0.11124221 0.52044547 0.2712466 0.26977804 0.42686543 -0.32915568 0.27107197
00000000: 233f a73d de21 42be 4bbf 4abe 9880 033d
00000010: c21d 883d 11ff 1d3e 1591 b3bc c4cd 2d3e
00000020: 0fae 173e e155 c53e 1d55 c0be d745 6a3e
00000030: bdf9 7cbd 6629 ae3d 64fb 98be 85cc a8bc
00000040: d7e5 21be 1c79 883e b7d4 04be d74a 8fbe
00000050: ab96 7e3e 63d9 713d c80e 8c3e 194e 263e
00000060: 8cb2 8f3a f5d2 e3bd ea3b 053f d6e0 8a3e
00000070: 5920 8a3e 1b8e da3e 1887 a8be f2c9 8a3e

running_var f4 [32]
0.25873795 0.09380152 0.07825088 0.021585496 0.030466696 0.05117355 0.019145256 0.08902072
0.0623067 0.14054757 0.059029706 0.06845628 0.009593085 0.19994529 0.012611804 0.09150996
0.0369416 0.14264996 0.022836534 0.04924323 0.34016842 0.15446278 0.04365215 0.21377544
0.04015131 0.13348326 0.06917396 0.06054466 0.047268603 0.09269562 0.08385405 0.07176528
00000000: 4d79 843e 031b c03d ff41 a03d 11d4 b03c
00000010: 4b95 f93c 5b9b 513d 83d6 9c3c 7f50 b63d
00000020: 4f35 7f3d b4eb 0f3e 22c9 713d ce32 8c3d
00000030: 512c 1d3c 75be 4c3e bda1 4e3c 9369 bb3d
00000040: 1350 173d d512 123e af13 bb3c 45b3 493d
00000050: 8e2a ae3e 7e2b 1e3e 99cc 323d f3e7 5a3e
00000060: b375 243d d6af 083e 14ab 8d3d adfd 773d
00000070: b99c 413d 34d7 bd3d acbb ab3d adf9 923d

weight f4 [8, 32, 32]
0.059074327 -0.040030804 0.07301617 -0.005124804 0.08388846 -0.03555516 0.00947468 -0.1358944
0.115956225 0.044184815 -0.045907397 0.042299584 0.04712397 -0.004868674 0.04288613 -0.056911845
0.03939975 -0.060353287 0.10735344 -0.10852678 0.15542066 -0.0853069 -0.023664786 -0.0149589125
0.100686856 -0.06016153 0.010234716 0.083904326 0.027987631 -0.0768519 -0.12961562 -0.03316523
0.09424218 -0.073265016 0.09201605 0.12594943 0.031022213 0.08981323 -0.029218141 -0.123630054
0.09813333 0.021111924 0.039186005 -0.02539014 0.013040491 0.07333954 0.02058402 0.0006340577
0.0012260969 -0.019486459 0.0064193867 -0.074894406 0.09577885 -0.11851683 -0.031828433 0.017646978
0.07570082 -0.017067153 0.0643159 -0.061828543 -0.05871964 0.091454595 -0.08973985 -0.038396284
-0.042161793 -0.011396436 0.07516348 0.008443287 -0.06583088 -0.038225718 0.06127725 -0.024598045
0.02177771 0.057649355 -0.13306312 0.012222272 0.053220008 -0.03526849 -0.056044165 0.02275939
0.0363425 -0.001463936 0.0057137213 -0.066040166 -0.0048337337 -0.10079606 0.050390154 0.040588662
0.07393301 -0.0016721934 -0.12170599 -0.050573014 0.051611137 0.018499732 -0.07254783 0.010923417
0.09810791 -0.0006734172 0.010082703 -0.018742759 -0.045705814 -0.11985905 0.017001271 -0.05335386
-0.16244268 0.08260167 0.090034336 0.059730053 0.037776567 -0.10255647 -0.022845538 0.048667993
0.009098734 -0.05081944 -0.046928667 -0.0936623 -0.030967468 -0.103250764 -0.010093418 0.013253651
-0.06184874 0.07827415 0.1664709 0.065472916 -0.01549796 0.015483761 -0.090471454 -0.060117695
0.0030952606 0.124066874 0.0029000228 0.02841946 0.09783027 -0.11463185 0.076494776 -0.15068866
-0.07071496 0.12581211 0.14235705 0.12768428 -0.043984886 -0.096192785 0.034766886 -0.065777645
0.054687932 -0.042100318 0.019078236 -0.07298444 0.008378729 0.045485307 -0.06747653 -0.019265298
-0.06278074 0.06727027 0.25027972 -0.031221434 0.1046264 0.13419662 0.024352783 0.054632343
0.1463677 -0.10568965 0.061630033 0.08886044 0.121423654 -0.15729032 0.0897291 -0.09195077
0.05330614 0.049756993 0.049079373 0.15915783 -0.098315164 -0.0065440615 0.037515603 0.0066525075
0.099651664 0.062079687 0.032846745 -0.2271925 -0.0014611558 -0.03399439 -0.028908387 0.061673157
-0.042778876 0.16319463 -0.039290234 0.042904764 0.08844906 0.023655077 -0.12117388 -0.0035546804
0.05177044 0.0033396084 0.12820733 -0.03705774 0.09976644 0.0062906113 0.11796982 0.040857363
-0.08572697 0.050913464 -0.25198507 0.069092005 0.027501618 -0.086010896 0.0037818342 -0.009513693
0.0025033308 0.07914773 -0.011050811 0.04613862 -0.06661682 -0.02205139 0.063238636 0.006293786
0.009800847 0.022320751 -0.05163441 -0.030189788 0.017043043 0.04192402 -0.0997995 -0.09431267
0.044891525 -0.060159456 0.011968266 0.014966487 0.010542531 -0.055698477 0.060997363 -0.13045995
-0.01932919 0.021458408 0.08745259 0.06654499 -0.028134754 0.019955624 0.026426997 0.014775578
-0.008309507 -0.08182697 0.024647629 -0.15351008 0.06446609 0.0017366208 0.0156548 -0.034119148
-0.01138307 -0.02210008 0.15574291 -0.06801062 -0.059410434 0.008282742 -0.037561066 -0.026408166
00000000: ecf7 713d 57f7 23bd 8089 953d f9ed a7bb
00000010: b7cd ab3d 4aa2 11bd b03b 1b3c e727 0bbe
00000020: 757a ed3d 23fb 343d 6509 3cbd 5442 2d3d
00000030: 1005 413d 6689 9fbb 5ea9 2f3d 651c 69bd
00000040: a261 213d 0235 77bd 1fdc db3d 4a43 debd
00000050: 9826 1f3e 62b5 aebd a7dc c1bc 3a16 75bc
00000060: e934 ce3d f06b 76bd 83af 273c 08d6 ab3d
00000070: 5146 e53c 8764 9dbd f5b9 04be 44d8 07bd
00000080: 0b02 c13d f80b 96bd e972 bc3d e3f8 003e
00000090: 4c22 fe3c 00f0 b73d e25a efbc c131 fdbd
000000a0: 21fa c83d eaf2 ac3c 8181 203d fcfe cfbc
000000b0: c9a7 553c 0a33 963d d29f a83c e436 263a
000000c0: fcb4 a03a 11a2 9fbc b859 d23b 3d62 99bd
000000d0: b427 c43d f4b8 f2bd 885e 02bd 6590 903c
000000e0: 0809 9b3d 6ad0 8bbc 0eb8 833d ed3f 7dbd
000000f0: 0184 70bd 8c4c bb3d 87c9 b7bd 6c45 1dbd
00000100: d8b1 2cbd 1eb8 3abc 50ef 993d b655 0a3c
00000110: 57d2 86bd 9292 1cbd dbfd 7a3d d781 c9bc
00000120: 2b67 b23c bb21 6c3d b341 08be ed3f 483c
00000130: 39fd 593d b175 10bd 918e 65bd e671 ba3c
00000140: e0db 143d 8ae1 bfba 2b3a bb3b 1140 87bd
00000150: 4c64 9ebb 2a6e cebd e865 4e3d 4c40 263d
00000160: 316a 973d 802d dbba fd40 f9bd a625 4fbd
00000170: 3366 533d c08c 973c f593 94bd 22f8 323c
00000180: cdec c83d 4388 30ba ec31 253c 6a8a 99bc
00000190: 0536 3bbd a978 f5bd 4046 8b3c 9489 5abd
000001a0: 6057 26be 102b a93d ec63 b83d 80a7 743d
000001b0: 9abb 1a3d 2009 d2bd 9126 bbbc 1758 473d
000001c0: db12 153c 0c28 50bd 4638 40bd 05d2 bfbd
000001d0: 7daf fdbc 2375 d3bd dd5e 25bc d725 593c
000001e0: 1b55 7dbd 334e a03d 5977 2a3e aa16 863d
000001f0: 28eb 7dbc 9aaf 7d3c 1949 b9bd f93d 76bd
00000200: dbd9 4a3b c616 fe3d 4f0e 3e3b edcf e83c
00000210: 3d5b c83d 1ac4 eabd 4ba9 9c3d 214e 1abe
00000220: 01d3 90bd e4d4 003e 0cc6 113e abbf 023e
00000230: 7f29 34bd b900 c5bd b967 0e3d 6eb6 86bd
00000240: 7400 603d 6271 2cbd f649 9c3c de78 95bd
00000250: f046 093c cd4e 3a3d 2331 8abd 42d2 9dbc
00000260: 3093 80bd ffc4 893d aa24 803e 18c4 ffbc
00000270: 5e46 d63d d76a 093e 7d7f c73c 2ac6 5f3d
00000280: 6ae1 153e d173 d8bd c66f 7c3d 76fc b53d
00000290: f7ac f83d b710 21be e4c3 b73d af50 bcbd
000002a0: 8a57 5a3d fdcd 4b3d 7407 493d 45fa 223e
000002b0: 7659 c9bd 916f d6bb f6a9 193d 47fd d93b
000002c0: 2c16 cc3d 4547 7e3d 4f8a 063d 27a5 68be
000002d0: 4184 bfba b43d 0bbd 48d1 ecbc fe9c 7c3d
000002e0: e738 2fbd 7e1c 273e ccee 20bd e8bc 2f3d
000002f0: c824 b53d 4bc8 c13c 032a f8bd a4f5 68bb
00000300: 3e0d 543d 55dd 5a3b c848 033e dbc9 17bd
00000310: 5952 cc3d 7921 ce3b 299a f13d 0d5a 273d
00000320: 9f91 afbd a38a 503d 3004 81be 1c80 8d3d
00000330: 134b e13c 7b26 b0bd a6d8 773b 52df 1bbc
00000340: ec0e 243b 3418 a23d 760e 35bc d9fb 3c3d
00000350: 666e 88bd 1ea5 b4bc 4283 813d 1b3c ce3b
00000360: bb93 203c 02da b63c 9a7e 53bd 9350 f7bc
00000370: da9d 8b3c 85b8 2b3d ae63 ccbd 0027 c1bd
00000380: 2de0 373d c369 76bd 8c16 443c ff35 753c
00000390: 94ba 2c3c 1624 64bd 5fd8 793d 4b97 05be
000003a0: 4058 9ebc 8bc9 af3c 581a b33d bd48 883d
000003b0: db7a e6bc fa79 a33c 6e7d d83c 4415 723c
000003c0: 9924 08bc e694 a7bd d3e9 c93c bf31 1dbe
000003d0: cc06 843d 539f e33a 7f3e 803c 85c0 0bbd
000003e0: 0e80 3abc 3a0b b5bc 127b 1f3e 2749 8bbd
000003f0: 5b58 73bd 57b4 073c a2d9 19bd f055 d8bc

weight f4 [32]
0.8304101 1.0231975 0.7325486 0.8219732 0.95690435 0.939943 0.8191704 0.91997504
1.0125741 0.79221976 1.059497 0.7499155 0.96051055 1.1034065 0.862172 0.87534076
1.0331281 1.039198 1.0022638 0.98645556 1.0565742 0.9560782 0.94785017 0.930566
1.0646231 0.9877305 1.1161784 1.2021067 1.0853088 0.7416312 0.9605202 0.87318414
00000000: c295 543f 23f8 823f 4e88 3b3f d66c 523f
00000010: aff7 743f 1ba0 703f 27b5 513f 7c83 6b3f
00000020: 079c 813f eace 4a3f 999d 873f 76fa 3f3f
00000030: 05e4 753f 6d3c 8d3f 4eb7 5c3f 5516 603f
00000040: 8b3d 843f 7104 853f 2e4a 803f 5a88 7c3f
00000050: d33d 873f 8ac1 743f 4fa6 723f 9339 6e3f
00000060: 9245 883f e8db 7c3f efde 8e3f a2de 993f
00000070: 66eb 8a3f 8bdb 3d3f a7e4 753f ff88 5f3f

bias f4 [32]
-0.35863703 0.20258743 -0.8276578 -0.26549897 -0.46498516 -0.582696 -0.49116373 -0.31707162
-0.65807253 -0.02819579 -0.3487342 0.5290692 0.20348723 -0.37269354 0.8685351 -0.17940953
-0.2209582 -0.48010623 0.18528803 0.12649219 -0.28764367 -0.031456757 0.33172867 -0.36873809
0.0544908 0.6621865 0.11071498 -0.08190078 -0.41528207 -0.2783439 0.32664096 0.5678767
00000000: 469f b7be 1473 4f3e 62e1 53bf 7bef 87be
00000010: 8912 eebe 912b 15bf d079 fbbe 3657 a2be
00000020: 7177 28bf dbfa e6bc 4a8d b2be 1471 073f
00000030: f55e 503e b0d1 bebe 5158 5e3f 22b7 37be
00000040: de42 62be 7cd0 f5be 25bc 3d3e 2b87 013e
00000050: 0846 93be cdd8 00bd 57d8 a93e 3dcb bcbe
00000060: bf31 5f3d 0e85 293f 89be e23d 99bb a7bd
00000070: da9f d4be 1783 8ebe 7c3d a73e 5e60 113f

running_mean f4 [32]
0.5099442 -0.55995154 1.0744057 0.1858523 0.049796674 0.1928117 0.726988 -0.024487456
0.048290685 0.16620457 -0.6390064 0.4958779 0.06376018 -0.060328353 1.0190225 -0.11961861
-0.2571398 -0.27474943 0.28547943 -0.49188966 -0.089754336 -0.21549301 -0.1604647 0.036782023
-0.18999301 0.43445137 -0.24694774 0.1052919 0.16493891 0.66091514 -0.5649316 -0.2393465
00000000: b48b 023f fc58 0fbf 2086 893f 1150 3e3e
00000010: 99f7 4b3d 6e70 453e e31b 3a3f eb99 c8bc
00000020: 74cc 453d 8831 2a3e ec95 23bf b5e3 fd3e
00000030: b294 823d dd1a 77bd 546f 823f 9afa f4bd
00000040: d4a7 83be f5ab 8cbe 5c2a 923e f6d8 fbbe
00000050: 1fd1 b7bd 33aa 5cbe dc50 24be bfa8 163d
00000060: 878d 42be 6970 de3e dedf 7cbe 48a3 d73d
00000070: bfe5 283e bc31 293f 5b9f 10bf 4017 75be

running_var f4 [32]
0.11510272 0.11306188 0.36810595 0.06110841 0.045343027 0.05118461 0.1989025 0.056063186
0.0685811 0.0556983 0.24870321 0.16035204 0.04516997 0.045992818 0.34418896 0.077580936
0.07560703 0.06337285 0.050869726 0.12882924 0.027484233 0.12914263 0.11492919 0.04299979
0.050162956 0.13158244 0.09423057 0.037285786 0.12911962 0.14706615 0.09768962 0.10405848
00000000: faba eb3d fd8c e73d 6278 bc3e d04c 7a3d
00000010: 9cb9 393d f4a6 513d 19ad 4b3e 83a2 653d
00000020: 3f74 8c3d e723 643d 0eac 7e3e 5333 243e
00000030: 2504 393d f762 3c3d 8939 b03e c1e2 9e3d
00000040: dcd7 9a3d a0c9 813d c65c 503d d0eb 033e
00000050: 9d26 e13c f73d 043e ff5f eb3d 8c20 303d
00000060: ac77 4d3d 8cbd 063e f5fb c03d fbb8 183d
00000070: ef37 043e 8298 163e 7f11 c83d 9d1c d53d
